assets/prediction_model.tflite (tflite, 2372 bytes, 5 tensors)

dense_7/bias f4 [8]
000000 00 00 00 00 da 73 80 bc 9b e9 85 bc 69 62 2e bd
       0.0 -0.015680242 -0.016346743 -0.04257432
000010 f6 eb 28 3c 04 8a a1 bd 66 0e 54 bd c8 f4 d0 bd
       0.010310164 -0.078876525 -0.051771544 -0.10202938

dense_6/bias f4 [12]
000000 00 00 00 00 00 00 00 00 74 b4 24 3f 7a 92 96 bd
       0.0 0.0 0.6433785 -0.07352157
000010 59 fa 84 bd 00 00 00 00 03 3e 88 3d 62 40 1e 3d
       -0.064930625 0.0 0.06652453 0.03863562
000020 00 00 00 00 0d 6b 36 bd 89 0b 3f bc 0c 8f 57 bd
       0.0 -0.044535685 -0.011660465 -0.052626655

sequential_2/dense_6/MatMul f4 [12, 5]
000000 f1 dc a4 be 42 ed bf 3e ea 1b 09 3f a0 dc 83 bd
       -0.32199815 0.374857 0.5355822 -0.06438565
000010 70 b7 a7 bd 03 18 a6 be 80 02 66 3e 24 2c c0 3e
       -0.08189285 -0.32440194 0.22461891 0.37533677
000020 a0 41 8b bd e0 28 f8 bc ca 6b 07 3f ba 84 f6 3e
       -0.06799626 -0.030292928 0.5289885 0.48148137
000030 66 3b b8 3e b6 50 1e 3b a6 4c 3a be 74 3e 04 bf
       0.35982817 0.0024156994 -0.18193302 -0.51657796
000040 2d 28 1e be ce 3a 8a be 6d 3e c9 3e 33 40 13 bd
       -0.15445013 -0.2699799 0.3930544 -0.035949897
000050 a0 f2 04 3f 9a 89 83 be ab bc c8 3e aa 02 3b be
       0.51932716 -0.2569092 0.39206442 -0.18262735
000060 2a ca 57 3e 20 f7 39 bd f7 9d 10 bf 3b a5 93 be
       0.21073213 -0.045401692 -0.56491035 -0.28836998
000070 ce 83 31 be e0 38 41 bd c5 fa a7 3e 27 bd b0 be
       -0.17335436 -0.04717338 0.3280851 -0.34519312
000080 7f c2 35 3d 75 3c cd be 31 e9 8b be 8f 43 cf 3d
       0.04437494 -0.40085188 -0.27326348 0.10120308
000090 cf d6 35 3d 43 cb c0 3e f1 b9 b3 3e 8f 10 36 be
       0.04439431 0.37655076 0.351028 -0.17779754
0000a0 68 ab 86 be c3 86 02 bf 0e 11 8b be 00 40 19 bd
       -0.26302648 -0.5098688 -0.2716145 -0.03741455
0000b0 00 59 cd be a7 fc 3e be 39 62 08 bf 25 e2 01 bf
       -0.40106964 -0.18651067 -0.53274876 -0.50735694
0000c0 fd 7d f7 3e a5 4d 8b be 31 a8 48 3e 27 52 d3 3e
       0.4833831 -0.27207676 0.1959541 0.41273615
0000d0 fc 12 96 3e 0a ad d4 3d 90 ca b0 bd 96 f1 0c bf
       0.2931136 0.10384567 -0.08632386 -0.5505613
0000e0 57 a3 e4 bb a7 60 d7 3e 37 ec a1 3e 65 0c 79 3e
       -0.0069774794 0.42065927 0.3162553 0.24321134

sequential_2/dense_7/MatMul f4 [8, 12]
000000 3c 83 47 be 28 ee d6 3d 93 ec f0 be cc c9 c6 be
       -0.19483656 0.104946434 -0.47055492 -0.38825834
000010 0a 9f 52 be c0 4e 4f 3e e8 1f 5e 3e 60 a7 0a bf
       -0.20568481 0.20244884 0.21691859 -0.54161644
000020 ce 0c 9d 3e 1c b6 10 3e 36 c6 2c be 38 d9 a9 3d
       0.30673832 0.14131969 -0.16872486 0.08293384
000030 a4 30 df be 86 db a7 be 0f 3d 5e be 26 49 32 3e
       -0.43591797 -0.3278467 -0.2170298 0.17410716
000040 8c 3b 84 be 70 a2 a1 be a0 97 8e 3e 51 32 dd 3d
       -0.2582668 -0.31569242 0.27850056 0.10800613
000050 46 e5 97 be 4b cb 46 be f6 aa 8b 3e 22 58 c0 be
       -0.2966711 -0.19413488 0.2727887 -0.3756724
000060 4c 33 26 be 18 49 0e 3e 1d 74 05 bf ce 94 a5 be
       -0.16230506 0.1389507 -0.521303 -0.3234009
000070 29 36 12 3e a8 aa a1 3e c0 52 bd 3d b6 23 a0 3e
       0.14278473 0.31575513 0.09244299 0.31277245
000080 82 6b bf be 7e b1 82 3d 6d 50 c1 be 8a 90 70 be
       -0.3738671 0.0638151 -0.37756673 -0.23492637
000090 22 df 77 be ac da c6 3e af 54 cd bc 03 56 90 3e
       -0.24206212 0.38838708 -0.025064794 0.28190622
0000a0 64 eb 09 3d 80 61 fd bb 36 c3 b2 3e 06 b3 eb be
       0.03367175 -0.00773257 0.3491456 -0.46035022
0000b0 88 d8 af 3e d5 f3 49 3e 80 96 fc bd 03 d5 55 3e
       0.34344888 0.19721921 -0.12333393 0.20882039
0000c0 f4 65 96 3e 82 1d 82 be dd 6e 54 bf 0a 6e 0b 3f
       0.2937466 -0.25413138 -0.82981664 0.5446478
0000d0 06 88 f9 be 50 49 ee 3d 00 45 a3 3c 4d 0f 26 bd
       -0.4873659 0.11635077 0.019930363 -0.040541936
0000e0 56 f6 d6 3e 7d a2 ab bd 97 c0 87 3d 4d d4 94 3d
       0.41984814 -0.083806016 0.066285305 0.07267056
0000f0 6b 9e e6 be f0 d6 c8 3e 6c dd b4 be 9b ad dc be
       -0.45042738 0.39226484 -0.3532518 -0.431012
000100 2a be f0 3e 08 9a aa bd 8a 91 74 be bc 14 d4 3d
       0.47020084 -0.083301604 -0.23883644 0.10355517
000110 3a ae 3b be 03 40 8e be 71 fe 9d be 09 ce 07 3e
       -0.18328181 -0.27783212 -0.30858186 0.1326219
000120 8e bc 4d be 30 92 e5 3e 49 b3 e9 3e c5 b6 d4 3e
       -0.20091459 0.44838095 0.45644596 0.41545692
000130 c3 a0 09 bf 08 dc 2e be 33 7d f4 be 6a c1 dc be
       -0.5376093 -0.17076123 -0.4775177 -0.43116313
000140 f0 e5 3d be 79 15 0e be 8c a2 15 bf 79 67 53 3e
       -0.18544745 -0.13875379 -0.5845115 0.2064494
000150 e0 71 20 bd b8 b9 e7 3d 35 10 9b 3e 2c 04 a8 3e
       -0.0391711 0.1131472 0.30285802 0.32815683
000160 f5 2a f8 bd 88 b9 f5 bd c3 70 fa bd e7 99 be be
       -0.121175684 -0.11998278 -0.12228539 -0.37226793
000170 5c 13 ef be 4b 47 05 bf b3 1d 3f bd 6f 6b 8b be
       -0.46694458 -0.5206191 -0.046659183 -0.27230403

sequential_2/dense_8/MatMul f4 [1, 8]
000000 e8 be d0 3e 12 b4 f9 be 9e ef d2 be ff 44 1c 3f
       0.4077065 -0.48770195 -0.41198438 0.6104278
000010 c3 3b a2 be 37 c7 11 bf 62 a3 01 3e 35 b1 01 bf
       -0.3168622 -0.569446 0.12659982 -0.5066102
